models/linear_model.npz (npz, 714 bytes, 2 tensors)

W f8 [6, 4]
6.340699856291907 -0.929976929162797 -1.0127262468181037 6.72266616296977 0.052471546640610066 -0.4677756256285397 -0.577907860254279 -0.5992231905631841
-0.850707661285593 0.42881519327924944 -0.8173003412882325 -0.1652866741815198 -7.782731753420063 -2.5651002066238777 -2.4284855463043393 -15.490631410959923
-10.643756061410517 -7.326601647575489 -4.428790662596893 -14.106931426314906 -11.536800204774183 -6.163468253146741 -3.001613405921131 -7.30105712951096
00000000: 411a 526c e05c 1940 353d 19fa 5ec2 edbf
00000010: 3d27 de6f 2034 f0bf 1d86 3f99 02e4 1a40
00000020: a37b 95f1 8cdd aa3f 7031 7c2d 09f0 ddbf
00000030: 4797 fc9f 387e e2bf 2728 cf1c d62c e3bf
00000040: 5eb4 f545 ff38 ebbf 0c63 ca47 b571 db3f
00000050: 8ef6 9a0b 5327 eabf 8980 091e 1d28 c5bf
00000060: 6deb c96e 8421 1fc0 974c d341 5385 04c0
00000070: 957c 81d4 896d 03c0 29ed 500a 34fb 2ec0
00000080: 4ab8 fc64 9a49 25c0 33a0 8ca9 704e 1dc0
00000090: 3dbc 42e6 14b7 11c0 d3df 45b7 bf36 2cc0
000000a0: 81fb f779 d712 27c0 4acc c438 64a7 18c0
000000b0: d954 ade3 4d03 08c0 aae8 f551 4834 1dc0

b f8 [4]
24.80659639122196 22.804900727625885 21.8436262602091 22.471869549136766
00000000: b45e e119 7dce 3840 06ae 5df9 0dce 3640
00000010: 16a5 fde3 f7d7 3540 4b85 5971 cc78 3640
